1
2
3
4
6
7
8
9
11
12
13
14
15
16
17
18
19
20
22
23
24
25
26
27
28
29
29.1
30
31
31a
RobertaForSequenceClassification(
  (roberta): RobertaModel(
    (embeddings): RobertaEmbeddings(
      (word_embeddings): Embedding(50265, 768, padding_idx=1)
      (position_embeddings): Embedding(514, 768, padding_idx=1)
      (token_type_embeddings): Embedding(1, 768)
      (LayerNorm): LayerNorm((768,), eps=1e-05, elementwise_affine=True)
      (dropout): Dropout(p=0.1, inplace=False)
    )
    (encoder): RobertaEncoder(
      (layer): ModuleList(
        (0-11): 12 x RobertaLayer(
          (attention): RobertaAttention(
            (self): RobertaSelfAttention(
              (query): Linear(in_features=768, out_features=768, bias=True)
              (key): Linear(in_features=768, out_features=768, bias=True)
              (value): Linear(in_features=768, out_features=768, bias=True)
              (dropout): Dropout(p=0.1, inplace=False)
            )
            (output): RobertaSelfOutput(
              (dense): Linear(in_features=768, out_features=768, bias=True)
              (LayerNorm): LayerNorm((768,), eps=1e-05, elementwise_affine=True)
              (dropout): Dropout(p=0.1, inplace=False)
            )
          )
          (intermediate): RobertaIntermediate(
            (dense): Linear(in_features=768, out_features=3072, bias=True)
            (intermediate_act_fn): GELUActivation()
          )
          (output): RobertaOutput(
            (dense): Linear(in_features=3072, out_features=768, bias=True)
            (LayerNorm): LayerNorm((768,), eps=1e-05, elementwise_affine=True)
            (dropout): Dropout(p=0.1, inplace=False)
          )
        )
      )
    )
  )
  (classifier): RobertaClassificationHead(
    (dense): Linear(in_features=768, out_features=768, bias=True)
    (dropout): Dropout(p=0.1, inplace=False)
    (out_proj): Linear(in_features=768, out_features=3, bias=True)
  )
)
32a
name='roberta'
child=RobertaModel(
  (embeddings): RobertaEmbeddings(
    (word_embeddings): Embedding(50265, 768, padding_idx=1)
    (position_embeddings): Embedding(514, 768, padding_idx=1)
    (token_type_embeddings): Embedding(1, 768)
    (LayerNorm): LayerNorm((768,), eps=1e-05, elementwise_affine=True)
    (dropout): Dropout(p=0.1, inplace=False)
  )
  (encoder): RobertaEncoder(
    (layer): ModuleList(
      (0-11): 12 x RobertaLayer(
        (attention): RobertaAttention(
          (self): RobertaSelfAttention(
            (query): Linear(in_features=768, out_features=768, bias=True)
            (key): Linear(in_features=768, out_features=768, bias=True)
            (value): Linear(in_features=768, out_features=768, bias=True)
            (dropout): Dropout(p=0.1, inplace=False)
          )
          (output): RobertaSelfOutput(
            (dense): Linear(in_features=768, out_features=768, bias=True)
            (LayerNorm): LayerNorm((768,), eps=1e-05, elementwise_affine=True)
            (dropout): Dropout(p=0.1, inplace=False)
          )
        )
        (intermediate): RobertaIntermediate(
          (dense): Linear(in_features=768, out_features=3072, bias=True)
          (intermediate_act_fn): GELUActivation()
        )
        (output): RobertaOutput(
          (dense): Linear(in_features=3072, out_features=768, bias=True)
          (LayerNorm): LayerNorm((768,), eps=1e-05, elementwise_affine=True)
          (dropout): Dropout(p=0.1, inplace=False)
        )
      )
    )
  )
)
32b
RobertaModel(
  (embeddings): RobertaEmbeddings(
    (word_embeddings): Embedding(50265, 768, padding_idx=1)
    (position_embeddings): Embedding(514, 768, padding_idx=1)
    (token_type_embeddings): Embedding(1, 768)
    (LayerNorm): LayerNorm((768,), eps=1e-05, elementwise_affine=True)
    (dropout): Dropout(p=0.1, inplace=False)
  )
  (encoder): RobertaEncoder(
    (layer): ModuleList(
      (0-11): 12 x RobertaLayer(
        (attention): RobertaAttention(
          (self): RobertaSelfAttention(
            (query): Linear(in_features=768, out_features=768, bias=True)
            (key): Linear(in_features=768, out_features=768, bias=True)
            (value): Linear(in_features=768, out_features=768, bias=True)
            (dropout): Dropout(p=0.1, inplace=False)
          )
          (output): RobertaSelfOutput(
            (dense): Linear(in_features=768, out_features=768, bias=True)
            (LayerNorm): LayerNorm((768,), eps=1e-05, elementwise_affine=True)
            (dropout): Dropout(p=0.1, inplace=False)
          )
        )
        (intermediate): RobertaIntermediate(
          (dense): Linear(in_features=768, out_features=3072, bias=True)
          (intermediate_act_fn): GELUActivation()
        )
        (output): RobertaOutput(
          (dense): Linear(in_features=3072, out_features=768, bias=True)
          (LayerNorm): LayerNorm((768,), eps=1e-05, elementwise_affine=True)
          (dropout): Dropout(p=0.1, inplace=False)
        )
      )
    )
  )
)
32a
name='embeddings'
child=RobertaEmbeddings(
  (word_embeddings): Embedding(50265, 768, padding_idx=1)
  (position_embeddings): Embedding(514, 768, padding_idx=1)
  (token_type_embeddings): Embedding(1, 768)
  (LayerNorm): LayerNorm((768,), eps=1e-05, elementwise_affine=True)
  (dropout): Dropout(p=0.1, inplace=False)
)
32b
RobertaEmbeddings(
  (word_embeddings): Embedding(50265, 768, padding_idx=1)
  (position_embeddings): Embedding(514, 768, padding_idx=1)
  (token_type_embeddings): Embedding(1, 768)
  (LayerNorm): LayerNorm((768,), eps=1e-05, elementwise_affine=True)
  (dropout): Dropout(p=0.1, inplace=False)
)
32a
name='word_embeddings'
child=Embedding(50265, 768, padding_idx=1)
32b
Embedding(50265, 768, padding_idx=1)
32a
name='position_embeddings'
child=Embedding(514, 768, padding_idx=1)
32b
Embedding(514, 768, padding_idx=1)
32a
name='token_type_embeddings'
child=Embedding(1, 768)
32b
Embedding(1, 768)
32a
name='LayerNorm'
child=LayerNorm((768,), eps=1e-05, elementwise_affine=True)
32b
LayerNorm((768,), eps=1e-05, elementwise_affine=True)
32a
name='dropout'
child=Dropout(p=0.1, inplace=False)
32b
Dropout(p=0.1, inplace=False)
32a
name='encoder'
child=RobertaEncoder(
  (layer): ModuleList(
    (0-11): 12 x RobertaLayer(
      (attention): RobertaAttention(
        (self): RobertaSelfAttention(
          (query): Linear(in_features=768, out_features=768, bias=True)
          (key): Linear(in_features=768, out_features=768, bias=True)
          (value): Linear(in_features=768, out_features=768, bias=True)
          (dropout): Dropout(p=0.1, inplace=False)
        )
        (output): RobertaSelfOutput(
          (dense): Linear(in_features=768, out_features=768, bias=True)
          (LayerNorm): LayerNorm((768,), eps=1e-05, elementwise_affine=True)
          (dropout): Dropout(p=0.1, inplace=False)
        )
      )
      (intermediate): RobertaIntermediate(
        (dense): Linear(in_features=768, out_features=3072, bias=True)
        (intermediate_act_fn): GELUActivation()
      )
      (output): RobertaOutput(
        (dense): Linear(in_features=3072, out_features=768, bias=True)
        (LayerNorm): LayerNorm((768,), eps=1e-05, elementwise_affine=True)
        (dropout): Dropout(p=0.1, inplace=False)
      )
    )
  )
)
32b
RobertaEncoder(
  (layer): ModuleList(
    (0-11): 12 x RobertaLayer(
      (attention): RobertaAttention(
        (self): RobertaSelfAttention(
          (query): Linear(in_features=768, out_features=768, bias=True)
          (key): Linear(in_features=768, out_features=768, bias=True)
          (value): Linear(in_features=768, out_features=768, bias=True)
          (dropout): Dropout(p=0.1, inplace=False)
        )
        (output): RobertaSelfOutput(
          (dense): Linear(in_features=768, out_features=768, bias=True)
          (LayerNorm): LayerNorm((768,), eps=1e-05, elementwise_affine=True)
          (dropout): Dropout(p=0.1, inplace=False)
        )
      )
      (intermediate): RobertaIntermediate(
        (dense): Linear(in_features=768, out_features=3072, bias=True)
        (intermediate_act_fn): GELUActivation()
      )
      (output): RobertaOutput(
        (dense): Linear(in_features=3072, out_features=768, bias=True)
        (LayerNorm): LayerNorm((768,), eps=1e-05, elementwise_affine=True)
        (dropout): Dropout(p=0.1, inplace=False)
      )
    )
  )
)
32a
name='layer'
child=ModuleList(
  (0-11): 12 x RobertaLayer(
    (attention): RobertaAttention(
      (self): RobertaSelfAttention(
        (query): Linear(in_features=768, out_features=768, bias=True)
        (key): Linear(in_features=768, out_features=768, bias=True)
        (value): Linear(in_features=768, out_features=768, bias=True)
        (dropout): Dropout(p=0.1, inplace=False)
      )
      (output): RobertaSelfOutput(
        (dense): Linear(in_features=768, out_features=768, bias=True)
        (LayerNorm): LayerNorm((768,), eps=1e-05, elementwise_affine=True)
        (dropout): Dropout(p=0.1, inplace=False)
      )
    )
    (intermediate): RobertaIntermediate(
      (dense): Linear(in_features=768, out_features=3072, bias=True)
      (intermediate_act_fn): GELUActivation()
    )
    (output): RobertaOutput(
      (dense): Linear(in_features=3072, out_features=768, bias=True)
      (LayerNorm): LayerNorm((768,), eps=1e-05, elementwise_affine=True)
      (dropout): Dropout(p=0.1, inplace=False)
    )
  )
)
32b
ModuleList(
  (0-11): 12 x RobertaLayer(
    (attention): RobertaAttention(
      (self): RobertaSelfAttention(
        (query): Linear(in_features=768, out_features=768, bias=True)
        (key): Linear(in_features=768, out_features=768, bias=True)
        (value): Linear(in_features=768, out_features=768, bias=True)
        (dropout): Dropout(p=0.1, inplace=False)
      )
      (output): RobertaSelfOutput(
        (dense): Linear(in_features=768, out_features=768, bias=True)
        (LayerNorm): LayerNorm((768,), eps=1e-05, elementwise_affine=True)
        (dropout): Dropout(p=0.1, inplace=False)
      )
    )
    (intermediate): RobertaIntermediate(
      (dense): Linear(in_features=768, out_features=3072, bias=True)
      (intermediate_act_fn): GELUActivation()
    )
    (output): RobertaOutput(
      (dense): Linear(in_features=3072, out_features=768, bias=True)
      (LayerNorm): LayerNorm((768,), eps=1e-05, elementwise_affine=True)
      (dropout): Dropout(p=0.1, inplace=False)
    )
  )
)
32a
name='0'
child=RobertaLayer(
  (attention): RobertaAttention(
    (self): RobertaSelfAttention(
      (query): Linear(in_features=768, out_features=768, bias=True)
      (key): Linear(in_features=768, out_features=768, bias=True)
      (value): Linear(in_features=768, out_features=768, bias=True)
      (dropout): Dropout(p=0.1, inplace=False)
    )
    (output): RobertaSelfOutput(
      (dense): Linear(in_features=768, out_features=768, bias=True)
      (LayerNorm): LayerNorm((768,), eps=1e-05, elementwise_affine=True)
      (dropout): Dropout(p=0.1, inplace=False)
    )
  )
  (intermediate): RobertaIntermediate(
    (dense): Linear(in_features=768, out_features=3072, bias=True)
    (intermediate_act_fn): GELUActivation()
  )
  (output): RobertaOutput(
    (dense): Linear(in_features=3072, out_features=768, bias=True)
    (LayerNorm): LayerNorm((768,), eps=1e-05, elementwise_affine=True)
    (dropout): Dropout(p=0.1, inplace=False)
  )
)
32b
RobertaLayer(
  (attention): RobertaAttention(
    (self): RobertaSelfAttention(
      (query): Linear(in_features=768, out_features=768, bias=True)
      (key): Linear(in_features=768, out_features=768, bias=True)
      (value): Linear(in_features=768, out_features=768, bias=True)
      (dropout): Dropout(p=0.1, inplace=False)
    )
    (output): RobertaSelfOutput(
      (dense): Linear(in_features=768, out_features=768, bias=True)
      (LayerNorm): LayerNorm((768,), eps=1e-05, elementwise_affine=True)
      (dropout): Dropout(p=0.1, inplace=False)
    )
  )
  (intermediate): RobertaIntermediate(
    (dense): Linear(in_features=768, out_features=3072, bias=True)
    (intermediate_act_fn): GELUActivation()
  )
  (output): RobertaOutput(
    (dense): Linear(in_features=3072, out_features=768, bias=True)
    (LayerNorm): LayerNorm((768,), eps=1e-05, elementwise_affine=True)
    (dropout): Dropout(p=0.1, inplace=False)
  )
)
32a
name='attention'
child=RobertaAttention(
  (self): RobertaSelfAttention(
    (query): Linear(in_features=768, out_features=768, bias=True)
    (key): Linear(in_features=768, out_features=768, bias=True)
    (value): Linear(in_features=768, out_features=768, bias=True)
    (dropout): Dropout(p=0.1, inplace=False)
  )
  (output): RobertaSelfOutput(
    (dense): Linear(in_features=768, out_features=768, bias=True)
    (LayerNorm): LayerNorm((768,), eps=1e-05, elementwise_affine=True)
    (dropout): Dropout(p=0.1, inplace=False)
  )
)
32b
RobertaAttention(
  (self): RobertaSelfAttention(
    (query): Linear(in_features=768, out_features=768, bias=True)
    (key): Linear(in_features=768, out_features=768, bias=True)
    (value): Linear(in_features=768, out_features=768, bias=True)
    (dropout): Dropout(p=0.1, inplace=False)
  )
  (output): RobertaSelfOutput(
    (dense): Linear(in_features=768, out_features=768, bias=True)
    (LayerNorm): LayerNorm((768,), eps=1e-05, elementwise_affine=True)
    (dropout): Dropout(p=0.1, inplace=False)
  )
)
32a
name='self'
child=RobertaSelfAttention(
  (query): Linear(in_features=768, out_features=768, bias=True)
  (key): Linear(in_features=768, out_features=768, bias=True)
  (value): Linear(in_features=768, out_features=768, bias=True)
  (dropout): Dropout(p=0.1, inplace=False)
)
32b
RobertaSelfAttention(
  (query): Linear(in_features=768, out_features=768, bias=True)
  (key): Linear(in_features=768, out_features=768, bias=True)
  (value): Linear(in_features=768, out_features=768, bias=True)
  (dropout): Dropout(p=0.1, inplace=False)
)
32a
name='query'
child=Linear(in_features=768, out_features=768, bias=True)
32b
Linear(in_features=768, out_features=768, bias=True)
32a
name='key'
child=Linear(in_features=768, out_features=768, bias=True)
32b
Linear(in_features=768, out_features=768, bias=True)
32a
name='value'
child=Linear(in_features=768, out_features=768, bias=True)
32b
Linear(in_features=768, out_features=768, bias=True)
32a
name='dropout'
child=Dropout(p=0.1, inplace=False)
32b
Dropout(p=0.1, inplace=False)
32a
name='output'
child=RobertaSelfOutput(
  (dense): Linear(in_features=768, out_features=768, bias=True)
  (LayerNorm): LayerNorm((768,), eps=1e-05, elementwise_affine=True)
  (dropout): Dropout(p=0.1, inplace=False)
)
32b
RobertaSelfOutput(
  (dense): Linear(in_features=768, out_features=768, bias=True)
  (LayerNorm): LayerNorm((768,), eps=1e-05, elementwise_affine=True)
  (dropout): Dropout(p=0.1, inplace=False)
)
32a
name='dense'
child=Linear(in_features=768, out_features=768, bias=True)
32b
Linear(in_features=768, out_features=768, bias=True)
32a
name='LayerNorm'
child=LayerNorm((768,), eps=1e-05, elementwise_affine=True)
32b
LayerNorm((768,), eps=1e-05, elementwise_affine=True)
32a
name='dropout'
child=Dropout(p=0.1, inplace=False)
32b
Dropout(p=0.1, inplace=False)
32a
name='intermediate'
child=RobertaIntermediate(
  (dense): Linear(in_features=768, out_features=3072, bias=True)
  (intermediate_act_fn): GELUActivation()
)
32b
RobertaIntermediate(
  (dense): Linear(in_features=768, out_features=3072, bias=True)
  (intermediate_act_fn): GELUActivation()
)
32a
name='dense'
child=Linear(in_features=768, out_features=3072, bias=True)
32b
Linear(in_features=768, out_features=3072, bias=True)
32a
name='intermediate_act_fn'
child=GELUActivation()
32b
GELUActivation()
32a
name='output'
child=RobertaOutput(
  (dense): Linear(in_features=3072, out_features=768, bias=True)
  (LayerNorm): LayerNorm((768,), eps=1e-05, elementwise_affine=True)
  (dropout): Dropout(p=0.1, inplace=False)
)
32b
RobertaOutput(
  (dense): Linear(in_features=3072, out_features=768, bias=True)
  (LayerNorm): LayerNorm((768,), eps=1e-05, elementwise_affine=True)
  (dropout): Dropout(p=0.1, inplace=False)
)
32a
name='dense'
child=Linear(in_features=3072, out_features=768, bias=True)
32b
Linear(in_features=3072, out_features=768, bias=True)
32a
name='LayerNorm'
child=LayerNorm((768,), eps=1e-05, elementwise_affine=True)
32b
LayerNorm((768,), eps=1e-05, elementwise_affine=True)
32a
name='dropout'
child=Dropout(p=0.1, inplace=False)
32b
Dropout(p=0.1, inplace=False)
32a
name='1'
child=RobertaLayer(
  (attention): RobertaAttention(
    (self): RobertaSelfAttention(
      (query): Linear(in_features=768, out_features=768, bias=True)
      (key): Linear(in_features=768, out_features=768, bias=True)
      (value): Linear(in_features=768, out_features=768, bias=True)
      (dropout): Dropout(p=0.1, inplace=False)
    )
    (output): RobertaSelfOutput(
      (dense): Linear(in_features=768, out_features=768, bias=True)
      (LayerNorm): LayerNorm((768,), eps=1e-05, elementwise_affine=True)
      (dropout): Dropout(p=0.1, inplace=False)
    )
  )
  (intermediate): RobertaIntermediate(
    (dense): Linear(in_features=768, out_features=3072, bias=True)
    (intermediate_act_fn): GELUActivation()
  )
  (output): RobertaOutput(
    (dense): Linear(in_features=3072, out_features=768, bias=True)
    (LayerNorm): LayerNorm((768,), eps=1e-05, elementwise_affine=True)
    (dropout): Dropout(p=0.1, inplace=False)
  )
)
32b
RobertaLayer(
  (attention): RobertaAttention(
    (self): RobertaSelfAttention(
      (query): Linear(in_features=768, out_features=768, bias=True)
      (key): Linear(in_features=768, out_features=768, bias=True)
      (value): Linear(in_features=768, out_features=768, bias=True)
      (dropout): Dropout(p=0.1, inplace=False)
    )
    (output): RobertaSelfOutput(
      (dense): Linear(in_features=768, out_features=768, bias=True)
      (LayerNorm): LayerNorm((768,), eps=1e-05, elementwise_affine=True)
      (dropout): Dropout(p=0.1, inplace=False)
    )
  )
  (intermediate): RobertaIntermediate(
    (dense): Linear(in_features=768, out_features=3072, bias=True)
    (intermediate_act_fn): GELUActivation()
  )
  (output): RobertaOutput(
    (dense): Linear(in_features=3072, out_features=768, bias=True)
    (LayerNorm): LayerNorm((768,), eps=1e-05, elementwise_affine=True)
    (dropout): Dropout(p=0.1, inplace=False)
  )
)
32a
name='attention'
child=RobertaAttention(
  (self): RobertaSelfAttention(
    (query): Linear(in_features=768, out_features=768, bias=True)
    (key): Linear(in_features=768, out_features=768, bias=True)
    (value): Linear(in_features=768, out_features=768, bias=True)
    (dropout): Dropout(p=0.1, inplace=False)
  )
  (output): RobertaSelfOutput(
    (dense): Linear(in_features=768, out_features=768, bias=True)
    (LayerNorm): LayerNorm((768,), eps=1e-05, elementwise_affine=True)
    (dropout): Dropout(p=0.1, inplace=False)
  )
)
32b
RobertaAttention(
  (self): RobertaSelfAttention(
    (query): Linear(in_features=768, out_features=768, bias=True)
    (key): Linear(in_features=768, out_features=768, bias=True)
    (value): Linear(in_features=768, out_features=768, bias=True)
    (dropout): Dropout(p=0.1, inplace=False)
  )
  (output): RobertaSelfOutput(
    (dense): Linear(in_features=768, out_features=768, bias=True)
    (LayerNorm): LayerNorm((768,), eps=1e-05, elementwise_affine=True)
    (dropout): Dropout(p=0.1, inplace=False)
  )
)
32a
name='self'
child=RobertaSelfAttention(
  (query): Linear(in_features=768, out_features=768, bias=True)
  (key): Linear(in_features=768, out_features=768, bias=True)
  (value): Linear(in_features=768, out_features=768, bias=True)
  (dropout): Dropout(p=0.1, inplace=False)
)
32b
RobertaSelfAttention(
  (query): Linear(in_features=768, out_features=768, bias=True)
  (key): Linear(in_features=768, out_features=768, bias=True)
  (value): Linear(in_features=768, out_features=768, bias=True)
  (dropout): Dropout(p=0.1, inplace=False)
)
32a
name='query'
child=Linear(in_features=768, out_features=768, bias=True)
32b
Linear(in_features=768, out_features=768, bias=True)
32a
name='key'
child=Linear(in_features=768, out_features=768, bias=True)
32b
Linear(in_features=768, out_features=768, bias=True)
32a
name='value'
child=Linear(in_features=768, out_features=768, bias=True)
32b
Linear(in_features=768, out_features=768, bias=True)
32a
name='dropout'
child=Dropout(p=0.1, inplace=False)
32b
Dropout(p=0.1, inplace=False)
32a
name='output'
child=RobertaSelfOutput(
  (dense): Linear(in_features=768, out_features=768, bias=True)
  (LayerNorm): LayerNorm((768,), eps=1e-05, elementwise_affine=True)
  (dropout): Dropout(p=0.1, inplace=False)
)
32b
RobertaSelfOutput(
  (dense): Linear(in_features=768, out_features=768, bias=True)
  (LayerNorm): LayerNorm((768,), eps=1e-05, elementwise_affine=True)
  (dropout): Dropout(p=0.1, inplace=False)
)
32a
name='dense'
child=Linear(in_features=768, out_features=768, bias=True)
32b
Linear(in_features=768, out_features=768, bias=True)
32a
name='LayerNorm'
child=LayerNorm((768,), eps=1e-05, elementwise_affine=True)
32b
LayerNorm((768,), eps=1e-05, elementwise_affine=True)
32a
name='dropout'
child=Dropout(p=0.1, inplace=False)
32b
Dropout(p=0.1, inplace=False)
32a
name='intermediate'
child=RobertaIntermediate(
  (dense): Linear(in_features=768, out_features=3072, bias=True)
  (intermediate_act_fn): GELUActivation()
)
32b
RobertaIntermediate(
  (dense): Linear(in_features=768, out_features=3072, bias=True)
  (intermediate_act_fn): GELUActivation()
)
32a
name='dense'
child=Linear(in_features=768, out_features=3072, bias=True)
32b
Linear(in_features=768, out_features=3072, bias=True)
32a
name='intermediate_act_fn'
child=GELUActivation()
32b
GELUActivation()
32a
name='output'
child=RobertaOutput(
  (dense): Linear(in_features=3072, out_features=768, bias=True)
  (LayerNorm): LayerNorm((768,), eps=1e-05, elementwise_affine=True)
  (dropout): Dropout(p=0.1, inplace=False)
)
32b
RobertaOutput(
  (dense): Linear(in_features=3072, out_features=768, bias=True)
  (LayerNorm): LayerNorm((768,), eps=1e-05, elementwise_affine=True)
  (dropout): Dropout(p=0.1, inplace=False)
)
32a
name='dense'
child=Linear(in_features=3072, out_features=768, bias=True)
32b
Linear(in_features=3072, out_features=768, bias=True)
32a
name='LayerNorm'
child=LayerNorm((768,), eps=1e-05, elementwise_affine=True)
32b
LayerNorm((768,), eps=1e-05, elementwise_affine=True)
32a
name='dropout'
child=Dropout(p=0.1, inplace=False)
32b
Dropout(p=0.1, inplace=False)
32a
name='2'
child=RobertaLayer(
  (attention): RobertaAttention(
    (self): RobertaSelfAttention(
      (query): Linear(in_features=768, out_features=768, bias=True)
      (key): Linear(in_features=768, out_features=768, bias=True)
      (value): Linear(in_features=768, out_features=768, bias=True)
      (dropout): Dropout(p=0.1, inplace=False)
    )
    (output): RobertaSelfOutput(
      (dense): Linear(in_features=768, out_features=768, bias=True)
      (LayerNorm): LayerNorm((768,), eps=1e-05, elementwise_affine=True)
      (dropout): Dropout(p=0.1, inplace=False)
    )
  )
  (intermediate): RobertaIntermediate(
    (dense): Linear(in_features=768, out_features=3072, bias=True)
    (intermediate_act_fn): GELUActivation()
  )
  (output): RobertaOutput(
    (dense): Linear(in_features=3072, out_features=768, bias=True)
    (LayerNorm): LayerNorm((768,), eps=1e-05, elementwise_affine=True)
    (dropout): Dropout(p=0.1, inplace=False)
  )
)
32b
RobertaLayer(
  (attention): RobertaAttention(
    (self): RobertaSelfAttention(
      (query): Linear(in_features=768, out_features=768, bias=True)
      (key): Linear(in_features=768, out_features=768, bias=True)
      (value): Linear(in_features=768, out_features=768, bias=True)
      (dropout): Dropout(p=0.1, inplace=False)
    )
    (output): RobertaSelfOutput(
      (dense): Linear(in_features=768, out_features=768, bias=True)
      (LayerNorm): LayerNorm((768,), eps=1e-05, elementwise_affine=True)
      (dropout): Dropout(p=0.1, inplace=False)
    )
  )
  (intermediate): RobertaIntermediate(
    (dense): Linear(in_features=768, out_features=3072, bias=True)
    (intermediate_act_fn): GELUActivation()
  )
  (output): RobertaOutput(
    (dense): Linear(in_features=3072, out_features=768, bias=True)
    (LayerNorm): LayerNorm((768,), eps=1e-05, elementwise_affine=True)
    (dropout): Dropout(p=0.1, inplace=False)
  )
)
32a
name='attention'
child=RobertaAttention(
  (self): RobertaSelfAttention(
    (query): Linear(in_features=768, out_features=768, bias=True)
    (key): Linear(in_features=768, out_features=768, bias=True)
    (value): Linear(in_features=768, out_features=768, bias=True)
    (dropout): Dropout(p=0.1, inplace=False)
  )
  (output): RobertaSelfOutput(
    (dense): Linear(in_features=768, out_features=768, bias=True)
    (LayerNorm): LayerNorm((768,), eps=1e-05, elementwise_affine=True)
    (dropout): Dropout(p=0.1, inplace=False)
  )
)
32b
RobertaAttention(
  (self): RobertaSelfAttention(
    (query): Linear(in_features=768, out_features=768, bias=True)
    (key): Linear(in_features=768, out_features=768, bias=True)
    (value): Linear(in_features=768, out_features=768, bias=True)
    (dropout): Dropout(p=0.1, inplace=False)
  )
  (output): RobertaSelfOutput(
    (dense): Linear(in_features=768, out_features=768, bias=True)
    (LayerNorm): LayerNorm((768,), eps=1e-05, elementwise_affine=True)
    (dropout): Dropout(p=0.1, inplace=False)
  )
)
32a
name='self'
child=RobertaSelfAttention(
  (query): Linear(in_features=768, out_features=768, bias=True)
  (key): Linear(in_features=768, out_features=768, bias=True)
  (value): Linear(in_features=768, out_features=768, bias=True)
  (dropout): Dropout(p=0.1, inplace=False)
)
32b
RobertaSelfAttention(
  (query): Linear(in_features=768, out_features=768, bias=True)
  (key): Linear(in_features=768, out_features=768, bias=True)
  (value): Linear(in_features=768, out_features=768, bias=True)
  (dropout): Dropout(p=0.1, inplace=False)
)
32a
name='query'
child=Linear(in_features=768, out_features=768, bias=True)
32b
Linear(in_features=768, out_features=768, bias=True)
32a
name='key'
child=Linear(in_features=768, out_features=768, bias=True)
32b
Linear(in_features=768, out_features=768, bias=True)
32a
name='value'
child=Linear(in_features=768, out_features=768, bias=True)
32b
Linear(in_features=768, out_features=768, bias=True)
32a
name='dropout'
child=Dropout(p=0.1, inplace=False)
32b
Dropout(p=0.1, inplace=False)
32a
name='output'
child=RobertaSelfOutput(
  (dense): Linear(in_features=768, out_features=768, bias=True)
  (LayerNorm): LayerNorm((768,), eps=1e-05, elementwise_affine=True)
  (dropout): Dropout(p=0.1, inplace=False)
)
32b
RobertaSelfOutput(
  (dense): Linear(in_features=768, out_features=768, bias=True)
  (LayerNorm): LayerNorm((768,), eps=1e-05, elementwise_affine=True)
  (dropout): Dropout(p=0.1, inplace=False)
)
32a
name='dense'
child=Linear(in_features=768, out_features=768, bias=True)
32b
Linear(in_features=768, out_features=768, bias=True)
32a
name='LayerNorm'
child=LayerNorm((768,), eps=1e-05, elementwise_affine=True)
32b
LayerNorm((768,), eps=1e-05, elementwise_affine=True)
32a
name='dropout'
child=Dropout(p=0.1, inplace=False)
32b
Dropout(p=0.1, inplace=False)
32a
name='intermediate'
child=RobertaIntermediate(
  (dense): Linear(in_features=768, out_features=3072, bias=True)
  (intermediate_act_fn): GELUActivation()
)
32b
RobertaIntermediate(
  (dense): Linear(in_features=768, out_features=3072, bias=True)
  (intermediate_act_fn): GELUActivation()
)
32a
name='dense'
child=Linear(in_features=768, out_features=3072, bias=True)
32b
Linear(in_features=768, out_features=3072, bias=True)
32a
name='intermediate_act_fn'
child=GELUActivation()
32b
GELUActivation()
32a
name='output'
child=RobertaOutput(
  (dense): Linear(in_features=3072, out_features=768, bias=True)
  (LayerNorm): LayerNorm((768,), eps=1e-05, elementwise_affine=True)
  (dropout): Dropout(p=0.1, inplace=False)
)
32b
RobertaOutput(
  (dense): Linear(in_features=3072, out_features=768, bias=True)
  (LayerNorm): LayerNorm((768,), eps=1e-05, elementwise_affine=True)
  (dropout): Dropout(p=0.1, inplace=False)
)
32a
name='dense'
child=Linear(in_features=3072, out_features=768, bias=True)
32b
Linear(in_features=3072, out_features=768, bias=True)
32a
name='LayerNorm'
child=LayerNorm((768,), eps=1e-05, elementwise_affine=True)
32b
LayerNorm((768,), eps=1e-05, elementwise_affine=True)
32a
name='dropout'
child=Dropout(p=0.1, inplace=False)
32b
Dropout(p=0.1, inplace=False)
32a
name='3'
child=RobertaLayer(
  (attention): RobertaAttention(
    (self): RobertaSelfAttention(
      (query): Linear(in_features=768, out_features=768, bias=True)
      (key): Linear(in_features=768, out_features=768, bias=True)
      (value): Linear(in_features=768, out_features=768, bias=True)
      (dropout): Dropout(p=0.1, inplace=False)
    )
    (output): RobertaSelfOutput(
      (dense): Linear(in_features=768, out_features=768, bias=True)
      (LayerNorm): LayerNorm((768,), eps=1e-05, elementwise_affine=True)
      (dropout): Dropout(p=0.1, inplace=False)
    )
  )
  (intermediate): RobertaIntermediate(
    (dense): Linear(in_features=768, out_features=3072, bias=True)
    (intermediate_act_fn): GELUActivation()
  )
  (output): RobertaOutput(
    (dense): Linear(in_features=3072, out_features=768, bias=True)
    (LayerNorm): LayerNorm((768,), eps=1e-05, elementwise_affine=True)
    (dropout): Dropout(p=0.1, inplace=False)
  )
)
32b
RobertaLayer(
  (attention): RobertaAttention(
    (self): RobertaSelfAttention(
      (query): Linear(in_features=768, out_features=768, bias=True)
      (key): Linear(in_features=768, out_features=768, bias=True)
      (value): Linear(in_features=768, out_features=768, bias=True)
      (dropout): Dropout(p=0.1, inplace=False)
    )
    (output): RobertaSelfOutput(
      (dense): Linear(in_features=768, out_features=768, bias=True)
      (LayerNorm): LayerNorm((768,), eps=1e-05, elementwise_affine=True)
      (dropout): Dropout(p=0.1, inplace=False)
    )
  )
  (intermediate): RobertaIntermediate(
    (dense): Linear(in_features=768, out_features=3072, bias=True)
    (intermediate_act_fn): GELUActivation()
  )
  (output): RobertaOutput(
    (dense): Linear(in_features=3072, out_features=768, bias=True)
    (LayerNorm): LayerNorm((768,), eps=1e-05, elementwise_affine=True)
    (dropout): Dropout(p=0.1, inplace=False)
  )
)
32a
name='attention'
child=RobertaAttention(
  (self): RobertaSelfAttention(
    (query): Linear(in_features=768, out_features=768, bias=True)
    (key): Linear(in_features=768, out_features=768, bias=True)
    (value): Linear(in_features=768, out_features=768, bias=True)
    (dropout): Dropout(p=0.1, inplace=False)
  )
  (output): RobertaSelfOutput(
    (dense): Linear(in_features=768, out_features=768, bias=True)
    (LayerNorm): LayerNorm((768,), eps=1e-05, elementwise_affine=True)
    (dropout): Dropout(p=0.1, inplace=False)
  )
)
32b
RobertaAttention(
  (self): RobertaSelfAttention(
    (query): Linear(in_features=768, out_features=768, bias=True)
    (key): Linear(in_features=768, out_features=768, bias=True)
    (value): Linear(in_features=768, out_features=768, bias=True)
    (dropout): Dropout(p=0.1, inplace=False)
  )
  (output): RobertaSelfOutput(
    (dense): Linear(in_features=768, out_features=768, bias=True)
    (LayerNorm): LayerNorm((768,), eps=1e-05, elementwise_affine=True)
    (dropout): Dropout(p=0.1, inplace=False)
  )
)
32a
name='self'
child=RobertaSelfAttention(
  (query): Linear(in_features=768, out_features=768, bias=True)
  (key): Linear(in_features=768, out_features=768, bias=True)
  (value): Linear(in_features=768, out_features=768, bias=True)
  (dropout): Dropout(p=0.1, inplace=False)
)
32b
RobertaSelfAttention(
  (query): Linear(in_features=768, out_features=768, bias=True)
  (key): Linear(in_features=768, out_features=768, bias=True)
  (value): Linear(in_features=768, out_features=768, bias=True)
  (dropout): Dropout(p=0.1, inplace=False)
)
32a
name='query'
child=Linear(in_features=768, out_features=768, bias=True)
32b
Linear(in_features=768, out_features=768, bias=True)
32a
name='key'
child=Linear(in_features=768, out_features=768, bias=True)
32b
Linear(in_features=768, out_features=768, bias=True)
32a
name='value'
child=Linear(in_features=768, out_features=768, bias=True)
32b
Linear(in_features=768, out_features=768, bias=True)
32a
name='dropout'
child=Dropout(p=0.1, inplace=False)
32b
Dropout(p=0.1, inplace=False)
32a
name='output'
child=RobertaSelfOutput(
  (dense): Linear(in_features=768, out_features=768, bias=True)
  (LayerNorm): LayerNorm((768,), eps=1e-05, elementwise_affine=True)
  (dropout): Dropout(p=0.1, inplace=False)
)
32b
RobertaSelfOutput(
  (dense): Linear(in_features=768, out_features=768, bias=True)
  (LayerNorm): LayerNorm((768,), eps=1e-05, elementwise_affine=True)
  (dropout): Dropout(p=0.1, inplace=False)
)
32a
name='dense'
child=Linear(in_features=768, out_features=768, bias=True)
32b
Linear(in_features=768, out_features=768, bias=True)
32a
name='LayerNorm'
child=LayerNorm((768,), eps=1e-05, elementwise_affine=True)
32b
LayerNorm((768,), eps=1e-05, elementwise_affine=True)
32a
name='dropout'
child=Dropout(p=0.1, inplace=False)
32b
Dropout(p=0.1, inplace=False)
32a
name='intermediate'
child=RobertaIntermediate(
  (dense): Linear(in_features=768, out_features=3072, bias=True)
  (intermediate_act_fn): GELUActivation()
)
32b
RobertaIntermediate(
  (dense): Linear(in_features=768, out_features=3072, bias=True)
  (intermediate_act_fn): GELUActivation()
)
32a
name='dense'
child=Linear(in_features=768, out_features=3072, bias=True)
32b
Linear(in_features=768, out_features=3072, bias=True)
32a
name='intermediate_act_fn'
child=GELUActivation()
32b
GELUActivation()
32a
name='output'
child=RobertaOutput(
  (dense): Linear(in_features=3072, out_features=768, bias=True)
  (LayerNorm): LayerNorm((768,), eps=1e-05, elementwise_affine=True)
  (dropout): Dropout(p=0.1, inplace=False)
)
32b
RobertaOutput(
  (dense): Linear(in_features=3072, out_features=768, bias=True)
  (LayerNorm): LayerNorm((768,), eps=1e-05, elementwise_affine=True)
  (dropout): Dropout(p=0.1, inplace=False)
)
32a
name='dense'
child=Linear(in_features=3072, out_features=768, bias=True)
32b
Linear(in_features=3072, out_features=768, bias=True)
32a
name='LayerNorm'
child=LayerNorm((768,), eps=1e-05, elementwise_affine=True)
32b
LayerNorm((768,), eps=1e-05, elementwise_affine=True)
32a
name='dropout'
child=Dropout(p=0.1, inplace=False)
32b
Dropout(p=0.1, inplace=False)
32a
name='4'
child=RobertaLayer(
  (attention): RobertaAttention(
    (self): RobertaSelfAttention(
      (query): Linear(in_features=768, out_features=768, bias=True)
      (key): Linear(in_features=768, out_features=768, bias=True)
      (value): Linear(in_features=768, out_features=768, bias=True)
      (dropout): Dropout(p=0.1, inplace=False)
    )
    (output): RobertaSelfOutput(
      (dense): Linear(in_features=768, out_features=768, bias=True)
      (LayerNorm): LayerNorm((768,), eps=1e-05, elementwise_affine=True)
      (dropout): Dropout(p=0.1, inplace=False)
    )
  )
  (intermediate): RobertaIntermediate(
    (dense): Linear(in_features=768, out_features=3072, bias=True)
    (intermediate_act_fn): GELUActivation()
  )
  (output): RobertaOutput(
    (dense): Linear(in_features=3072, out_features=768, bias=True)
    (LayerNorm): LayerNorm((768,), eps=1e-05, elementwise_affine=True)
    (dropout): Dropout(p=0.1, inplace=False)
  )
)
32b
RobertaLayer(
  (attention): RobertaAttention(
    (self): RobertaSelfAttention(
      (query): Linear(in_features=768, out_features=768, bias=True)
      (key): Linear(in_features=768, out_features=768, bias=True)
      (value): Linear(in_features=768, out_features=768, bias=True)
      (dropout): Dropout(p=0.1, inplace=False)
    )
    (output): RobertaSelfOutput(
      (dense): Linear(in_features=768, out_features=768, bias=True)
      (LayerNorm): LayerNorm((768,), eps=1e-05, elementwise_affine=True)
      (dropout): Dropout(p=0.1, inplace=False)
    )
  )
  (intermediate): RobertaIntermediate(
    (dense): Linear(in_features=768, out_features=3072, bias=True)
    (intermediate_act_fn): GELUActivation()
  )
  (output): RobertaOutput(
    (dense): Linear(in_features=3072, out_features=768, bias=True)
    (LayerNorm): LayerNorm((768,), eps=1e-05, elementwise_affine=True)
    (dropout): Dropout(p=0.1, inplace=False)
  )
)
32a
name='attention'
child=RobertaAttention(
  (self): RobertaSelfAttention(
    (query): Linear(in_features=768, out_features=768, bias=True)
    (key): Linear(in_features=768, out_features=768, bias=True)
    (value): Linear(in_features=768, out_features=768, bias=True)
    (dropout): Dropout(p=0.1, inplace=False)
  )
  (output): RobertaSelfOutput(
    (dense): Linear(in_features=768, out_features=768, bias=True)
    (LayerNorm): LayerNorm((768,), eps=1e-05, elementwise_affine=True)
    (dropout): Dropout(p=0.1, inplace=False)
  )
)
32b
RobertaAttention(
  (self): RobertaSelfAttention(
    (query): Linear(in_features=768, out_features=768, bias=True)
    (key): Linear(in_features=768, out_features=768, bias=True)
    (value): Linear(in_features=768, out_features=768, bias=True)
    (dropout): Dropout(p=0.1, inplace=False)
  )
  (output): RobertaSelfOutput(
    (dense): Linear(in_features=768, out_features=768, bias=True)
    (LayerNorm): LayerNorm((768,), eps=1e-05, elementwise_affine=True)
    (dropout): Dropout(p=0.1, inplace=False)
  )
)
32a
name='self'
child=RobertaSelfAttention(
  (query): Linear(in_features=768, out_features=768, bias=True)
  (key): Linear(in_features=768, out_features=768, bias=True)
  (value): Linear(in_features=768, out_features=768, bias=True)
  (dropout): Dropout(p=0.1, inplace=False)
)
32b
RobertaSelfAttention(
  (query): Linear(in_features=768, out_features=768, bias=True)
  (key): Linear(in_features=768, out_features=768, bias=True)
  (value): Linear(in_features=768, out_features=768, bias=True)
  (dropout): Dropout(p=0.1, inplace=False)
)
32a
name='query'
child=Linear(in_features=768, out_features=768, bias=True)
32b
Linear(in_features=768, out_features=768, bias=True)
32a
name='key'
child=Linear(in_features=768, out_features=768, bias=True)
32b
Linear(in_features=768, out_features=768, bias=True)
32a
name='value'
child=Linear(in_features=768, out_features=768, bias=True)
32b
Linear(in_features=768, out_features=768, bias=True)
32a
name='dropout'
child=Dropout(p=0.1, inplace=False)
32b
Dropout(p=0.1, inplace=False)
32a
name='output'
child=RobertaSelfOutput(
  (dense): Linear(in_features=768, out_features=768, bias=True)
  (LayerNorm): LayerNorm((768,), eps=1e-05, elementwise_affine=True)
  (dropout): Dropout(p=0.1, inplace=False)
)
32b
RobertaSelfOutput(
  (dense): Linear(in_features=768, out_features=768, bias=True)
  (LayerNorm): LayerNorm((768,), eps=1e-05, elementwise_affine=True)
  (dropout): Dropout(p=0.1, inplace=False)
)
32a
name='dense'
child=Linear(in_features=768, out_features=768, bias=True)
32b
Linear(in_features=768, out_features=768, bias=True)
32a
name='LayerNorm'
child=LayerNorm((768,), eps=1e-05, elementwise_affine=True)
32b
LayerNorm((768,), eps=1e-05, elementwise_affine=True)
32a
name='dropout'
child=Dropout(p=0.1, inplace=False)
32b
Dropout(p=0.1, inplace=False)
32a
name='intermediate'
child=RobertaIntermediate(
  (dense): Linear(in_features=768, out_features=3072, bias=True)
  (intermediate_act_fn): GELUActivation()
)
32b
RobertaIntermediate(
  (dense): Linear(in_features=768, out_features=3072, bias=True)
  (intermediate_act_fn): GELUActivation()
)
32a
name='dense'
child=Linear(in_features=768, out_features=3072, bias=True)
32b
Linear(in_features=768, out_features=3072, bias=True)
32a
name='intermediate_act_fn'
child=GELUActivation()
32b
GELUActivation()
32a
name='output'
child=RobertaOutput(
  (dense): Linear(in_features=3072, out_features=768, bias=True)
  (LayerNorm): LayerNorm((768,), eps=1e-05, elementwise_affine=True)
  (dropout): Dropout(p=0.1, inplace=False)
)
32b
RobertaOutput(
  (dense): Linear(in_features=3072, out_features=768, bias=True)
  (LayerNorm): LayerNorm((768,), eps=1e-05, elementwise_affine=True)
  (dropout): Dropout(p=0.1, inplace=False)
)
32a
name='dense'
child=Linear(in_features=3072, out_features=768, bias=True)
32b
Linear(in_features=3072, out_features=768, bias=True)
32a
name='LayerNorm'
child=LayerNorm((768,), eps=1e-05, elementwise_affine=True)
32b
LayerNorm((768,), eps=1e-05, elementwise_affine=True)
32a
name='dropout'
child=Dropout(p=0.1, inplace=False)
32b
Dropout(p=0.1, inplace=False)
32a
name='5'
child=RobertaLayer(
  (attention): RobertaAttention(
    (self): RobertaSelfAttention(
      (query): Linear(in_features=768, out_features=768, bias=True)
      (key): Linear(in_features=768, out_features=768, bias=True)
      (value): Linear(in_features=768, out_features=768, bias=True)
      (dropout): Dropout(p=0.1, inplace=False)
    )
    (output): RobertaSelfOutput(
      (dense): Linear(in_features=768, out_features=768, bias=True)
      (LayerNorm): LayerNorm((768,), eps=1e-05, elementwise_affine=True)
      (dropout): Dropout(p=0.1, inplace=False)
    )
  )
  (intermediate): RobertaIntermediate(
    (dense): Linear(in_features=768, out_features=3072, bias=True)
    (intermediate_act_fn): GELUActivation()
  )
  (output): RobertaOutput(
    (dense): Linear(in_features=3072, out_features=768, bias=True)
    (LayerNorm): LayerNorm((768,), eps=1e-05, elementwise_affine=True)
    (dropout): Dropout(p=0.1, inplace=False)
  )
)
32b
RobertaLayer(
  (attention): RobertaAttention(
    (self): RobertaSelfAttention(
      (query): Linear(in_features=768, out_features=768, bias=True)
      (key): Linear(in_features=768, out_features=768, bias=True)
      (value): Linear(in_features=768, out_features=768, bias=True)
      (dropout): Dropout(p=0.1, inplace=False)
    )
    (output): RobertaSelfOutput(
      (dense): Linear(in_features=768, out_features=768, bias=True)
      (LayerNorm): LayerNorm((768,), eps=1e-05, elementwise_affine=True)
      (dropout): Dropout(p=0.1, inplace=False)
    )
  )
  (intermediate): RobertaIntermediate(
    (dense): Linear(in_features=768, out_features=3072, bias=True)
    (intermediate_act_fn): GELUActivation()
  )
  (output): RobertaOutput(
    (dense): Linear(in_features=3072, out_features=768, bias=True)
    (LayerNorm): LayerNorm((768,), eps=1e-05, elementwise_affine=True)
    (dropout): Dropout(p=0.1, inplace=False)
  )
)
32a
name='attention'
child=RobertaAttention(
  (self): RobertaSelfAttention(
    (query): Linear(in_features=768, out_features=768, bias=True)
    (key): Linear(in_features=768, out_features=768, bias=True)
    (value): Linear(in_features=768, out_features=768, bias=True)
    (dropout): Dropout(p=0.1, inplace=False)
  )
  (output): RobertaSelfOutput(
    (dense): Linear(in_features=768, out_features=768, bias=True)
    (LayerNorm): LayerNorm((768,), eps=1e-05, elementwise_affine=True)
    (dropout): Dropout(p=0.1, inplace=False)
  )
)
32b
RobertaAttention(
  (self): RobertaSelfAttention(
    (query): Linear(in_features=768, out_features=768, bias=True)
    (key): Linear(in_features=768, out_features=768, bias=True)
    (value): Linear(in_features=768, out_features=768, bias=True)
    (dropout): Dropout(p=0.1, inplace=False)
  )
  (output): RobertaSelfOutput(
    (dense): Linear(in_features=768, out_features=768, bias=True)
    (LayerNorm): LayerNorm((768,), eps=1e-05, elementwise_affine=True)
    (dropout): Dropout(p=0.1, inplace=False)
  )
)
32a
name='self'
child=RobertaSelfAttention(
  (query): Linear(in_features=768, out_features=768, bias=True)
  (key): Linear(in_features=768, out_features=768, bias=True)
  (value): Linear(in_features=768, out_features=768, bias=True)
  (dropout): Dropout(p=0.1, inplace=False)
)
32b
RobertaSelfAttention(
  (query): Linear(in_features=768, out_features=768, bias=True)
  (key): Linear(in_features=768, out_features=768, bias=True)
  (value): Linear(in_features=768, out_features=768, bias=True)
  (dropout): Dropout(p=0.1, inplace=False)
)
32a
name='query'
child=Linear(in_features=768, out_features=768, bias=True)
32b
Linear(in_features=768, out_features=768, bias=True)
32a
name='key'
child=Linear(in_features=768, out_features=768, bias=True)
32b
Linear(in_features=768, out_features=768, bias=True)
32a
name='value'
child=Linear(in_features=768, out_features=768, bias=True)
32b
Linear(in_features=768, out_features=768, bias=True)
32a
name='dropout'
child=Dropout(p=0.1, inplace=False)
32b
Dropout(p=0.1, inplace=False)
32a
name='output'
child=RobertaSelfOutput(
  (dense): Linear(in_features=768, out_features=768, bias=True)
  (LayerNorm): LayerNorm((768,), eps=1e-05, elementwise_affine=True)
  (dropout): Dropout(p=0.1, inplace=False)
)
32b
RobertaSelfOutput(
  (dense): Linear(in_features=768, out_features=768, bias=True)
  (LayerNorm): LayerNorm((768,), eps=1e-05, elementwise_affine=True)
  (dropout): Dropout(p=0.1, inplace=False)
)
32a
name='dense'
child=Linear(in_features=768, out_features=768, bias=True)
32b
Linear(in_features=768, out_features=768, bias=True)
32a
name='LayerNorm'
child=LayerNorm((768,), eps=1e-05, elementwise_affine=True)
32b
LayerNorm((768,), eps=1e-05, elementwise_affine=True)
32a
name='dropout'
child=Dropout(p=0.1, inplace=False)
32b
Dropout(p=0.1, inplace=False)
32a
name='intermediate'
child=RobertaIntermediate(
  (dense): Linear(in_features=768, out_features=3072, bias=True)
  (intermediate_act_fn): GELUActivation()
)
32b
RobertaIntermediate(
  (dense): Linear(in_features=768, out_features=3072, bias=True)
  (intermediate_act_fn): GELUActivation()
)
32a
name='dense'
child=Linear(in_features=768, out_features=3072, bias=True)
32b
Linear(in_features=768, out_features=3072, bias=True)
32a
name='intermediate_act_fn'
child=GELUActivation()
32b
GELUActivation()
32a
name='output'
child=RobertaOutput(
  (dense): Linear(in_features=3072, out_features=768, bias=True)
  (LayerNorm): LayerNorm((768,), eps=1e-05, elementwise_affine=True)
  (dropout): Dropout(p=0.1, inplace=False)
)
32b
RobertaOutput(
  (dense): Linear(in_features=3072, out_features=768, bias=True)
  (LayerNorm): LayerNorm((768,), eps=1e-05, elementwise_affine=True)
  (dropout): Dropout(p=0.1, inplace=False)
)
32a
name='dense'
child=Linear(in_features=3072, out_features=768, bias=True)
32b
Linear(in_features=3072, out_features=768, bias=True)
32a
name='LayerNorm'
child=LayerNorm((768,), eps=1e-05, elementwise_affine=True)
32b
LayerNorm((768,), eps=1e-05, elementwise_affine=True)
32a
name='dropout'
child=Dropout(p=0.1, inplace=False)
32b
Dropout(p=0.1, inplace=False)
32a
name='6'
child=RobertaLayer(
  (attention): RobertaAttention(
    (self): RobertaSelfAttention(
      (query): Linear(in_features=768, out_features=768, bias=True)
      (key): Linear(in_features=768, out_features=768, bias=True)
      (value): Linear(in_features=768, out_features=768, bias=True)
      (dropout): Dropout(p=0.1, inplace=False)
    )
    (output): RobertaSelfOutput(
      (dense): Linear(in_features=768, out_features=768, bias=True)
      (LayerNorm): LayerNorm((768,), eps=1e-05, elementwise_affine=True)
      (dropout): Dropout(p=0.1, inplace=False)
    )
  )
  (intermediate): RobertaIntermediate(
    (dense): Linear(in_features=768, out_features=3072, bias=True)
    (intermediate_act_fn): GELUActivation()
  )
  (output): RobertaOutput(
    (dense): Linear(in_features=3072, out_features=768, bias=True)
    (LayerNorm): LayerNorm((768,), eps=1e-05, elementwise_affine=True)
    (dropout): Dropout(p=0.1, inplace=False)
  )
)
32b
RobertaLayer(
  (attention): RobertaAttention(
    (self): RobertaSelfAttention(
      (query): Linear(in_features=768, out_features=768, bias=True)
      (key): Linear(in_features=768, out_features=768, bias=True)
      (value): Linear(in_features=768, out_features=768, bias=True)
      (dropout): Dropout(p=0.1, inplace=False)
    )
    (output): RobertaSelfOutput(
      (dense): Linear(in_features=768, out_features=768, bias=True)
      (LayerNorm): LayerNorm((768,), eps=1e-05, elementwise_affine=True)
      (dropout): Dropout(p=0.1, inplace=False)
    )
  )
  (intermediate): RobertaIntermediate(
    (dense): Linear(in_features=768, out_features=3072, bias=True)
    (intermediate_act_fn): GELUActivation()
  )
  (output): RobertaOutput(
    (dense): Linear(in_features=3072, out_features=768, bias=True)
    (LayerNorm): LayerNorm((768,), eps=1e-05, elementwise_affine=True)
    (dropout): Dropout(p=0.1, inplace=False)
  )
)
32a
name='attention'
child=RobertaAttention(
  (self): RobertaSelfAttention(
    (query): Linear(in_features=768, out_features=768, bias=True)
    (key): Linear(in_features=768, out_features=768, bias=True)
    (value): Linear(in_features=768, out_features=768, bias=True)
    (dropout): Dropout(p=0.1, inplace=False)
  )
  (output): RobertaSelfOutput(
    (dense): Linear(in_features=768, out_features=768, bias=True)
    (LayerNorm): LayerNorm((768,), eps=1e-05, elementwise_affine=True)
    (dropout): Dropout(p=0.1, inplace=False)
  )
)
32b
RobertaAttention(
  (self): RobertaSelfAttention(
    (query): Linear(in_features=768, out_features=768, bias=True)
    (key): Linear(in_features=768, out_features=768, bias=True)
    (value): Linear(in_features=768, out_features=768, bias=True)
    (dropout): Dropout(p=0.1, inplace=False)
  )
  (output): RobertaSelfOutput(
    (dense): Linear(in_features=768, out_features=768, bias=True)
    (LayerNorm): LayerNorm((768,), eps=1e-05, elementwise_affine=True)
    (dropout): Dropout(p=0.1, inplace=False)
  )
)
32a
name='self'
child=RobertaSelfAttention(
  (query): Linear(in_features=768, out_features=768, bias=True)
  (key): Linear(in_features=768, out_features=768, bias=True)
  (value): Linear(in_features=768, out_features=768, bias=True)
  (dropout): Dropout(p=0.1, inplace=False)
)
32b
RobertaSelfAttention(
  (query): Linear(in_features=768, out_features=768, bias=True)
  (key): Linear(in_features=768, out_features=768, bias=True)
  (value): Linear(in_features=768, out_features=768, bias=True)
  (dropout): Dropout(p=0.1, inplace=False)
)
32a
name='query'
child=Linear(in_features=768, out_features=768, bias=True)
32b
Linear(in_features=768, out_features=768, bias=True)
32a
name='key'
child=Linear(in_features=768, out_features=768, bias=True)
32b
Linear(in_features=768, out_features=768, bias=True)
32a
name='value'
child=Linear(in_features=768, out_features=768, bias=True)
32b
Linear(in_features=768, out_features=768, bias=True)
32a
name='dropout'
child=Dropout(p=0.1, inplace=False)
32b
Dropout(p=0.1, inplace=False)
32a
name='output'
child=RobertaSelfOutput(
  (dense): Linear(in_features=768, out_features=768, bias=True)
  (LayerNorm): LayerNorm((768,), eps=1e-05, elementwise_affine=True)
  (dropout): Dropout(p=0.1, inplace=False)
)
32b
RobertaSelfOutput(
  (dense): Linear(in_features=768, out_features=768, bias=True)
  (LayerNorm): LayerNorm((768,), eps=1e-05, elementwise_affine=True)
  (dropout): Dropout(p=0.1, inplace=False)
)
32a
name='dense'
child=Linear(in_features=768, out_features=768, bias=True)
32b
Linear(in_features=768, out_features=768, bias=True)
32a
name='LayerNorm'
child=LayerNorm((768,), eps=1e-05, elementwise_affine=True)
32b
LayerNorm((768,), eps=1e-05, elementwise_affine=True)
32a
name='dropout'
child=Dropout(p=0.1, inplace=False)
32b
Dropout(p=0.1, inplace=False)
32a
name='intermediate'
child=RobertaIntermediate(
  (dense): Linear(in_features=768, out_features=3072, bias=True)
  (intermediate_act_fn): GELUActivation()
)
32b
RobertaIntermediate(
  (dense): Linear(in_features=768, out_features=3072, bias=True)
  (intermediate_act_fn): GELUActivation()
)
32a
name='dense'
child=Linear(in_features=768, out_features=3072, bias=True)
32b
Linear(in_features=768, out_features=3072, bias=True)
32a
name='intermediate_act_fn'
child=GELUActivation()
32b
GELUActivation()
32a
name='output'
child=RobertaOutput(
  (dense): Linear(in_features=3072, out_features=768, bias=True)
  (LayerNorm): LayerNorm((768,), eps=1e-05, elementwise_affine=True)
  (dropout): Dropout(p=0.1, inplace=False)
)
32b
RobertaOutput(
  (dense): Linear(in_features=3072, out_features=768, bias=True)
  (LayerNorm): LayerNorm((768,), eps=1e-05, elementwise_affine=True)
  (dropout): Dropout(p=0.1, inplace=False)
)
32a
name='dense'
child=Linear(in_features=3072, out_features=768, bias=True)
32b
Linear(in_features=3072, out_features=768, bias=True)
32a
name='LayerNorm'
child=LayerNorm((768,), eps=1e-05, elementwise_affine=True)
32b
LayerNorm((768,), eps=1e-05, elementwise_affine=True)
32a
name='dropout'
child=Dropout(p=0.1, inplace=False)
32b
Dropout(p=0.1, inplace=False)
32a
name='7'
child=RobertaLayer(
  (attention): RobertaAttention(
    (self): RobertaSelfAttention(
      (query): Linear(in_features=768, out_features=768, bias=True)
      (key): Linear(in_features=768, out_features=768, bias=True)
      (value): Linear(in_features=768, out_features=768, bias=True)
      (dropout): Dropout(p=0.1, inplace=False)
    )
    (output): RobertaSelfOutput(
      (dense): Linear(in_features=768, out_features=768, bias=True)
      (LayerNorm): LayerNorm((768,), eps=1e-05, elementwise_affine=True)
      (dropout): Dropout(p=0.1, inplace=False)
    )
  )
  (intermediate): RobertaIntermediate(
    (dense): Linear(in_features=768, out_features=3072, bias=True)
    (intermediate_act_fn): GELUActivation()
  )
  (output): RobertaOutput(
    (dense): Linear(in_features=3072, out_features=768, bias=True)
    (LayerNorm): LayerNorm((768,), eps=1e-05, elementwise_affine=True)
    (dropout): Dropout(p=0.1, inplace=False)
  )
)
32b
RobertaLayer(
  (attention): RobertaAttention(
    (self): RobertaSelfAttention(
      (query): Linear(in_features=768, out_features=768, bias=True)
      (key): Linear(in_features=768, out_features=768, bias=True)
      (value): Linear(in_features=768, out_features=768, bias=True)
      (dropout): Dropout(p=0.1, inplace=False)
    )
    (output): RobertaSelfOutput(
      (dense): Linear(in_features=768, out_features=768, bias=True)
      (LayerNorm): LayerNorm((768,), eps=1e-05, elementwise_affine=True)
      (dropout): Dropout(p=0.1, inplace=False)
    )
  )
  (intermediate): RobertaIntermediate(
    (dense): Linear(in_features=768, out_features=3072, bias=True)
    (intermediate_act_fn): GELUActivation()
  )
  (output): RobertaOutput(
    (dense): Linear(in_features=3072, out_features=768, bias=True)
    (LayerNorm): LayerNorm((768,), eps=1e-05, elementwise_affine=True)
    (dropout): Dropout(p=0.1, inplace=False)
  )
)
32a
name='attention'
child=RobertaAttention(
  (self): RobertaSelfAttention(
    (query): Linear(in_features=768, out_features=768, bias=True)
    (key): Linear(in_features=768, out_features=768, bias=True)
    (value): Linear(in_features=768, out_features=768, bias=True)
    (dropout): Dropout(p=0.1, inplace=False)
  )
  (output): RobertaSelfOutput(
    (dense): Linear(in_features=768, out_features=768, bias=True)
    (LayerNorm): LayerNorm((768,), eps=1e-05, elementwise_affine=True)
    (dropout): Dropout(p=0.1, inplace=False)
  )
)
32b
RobertaAttention(
  (self): RobertaSelfAttention(
    (query): Linear(in_features=768, out_features=768, bias=True)
    (key): Linear(in_features=768, out_features=768, bias=True)
    (value): Linear(in_features=768, out_features=768, bias=True)
    (dropout): Dropout(p=0.1, inplace=False)
  )
  (output): RobertaSelfOutput(
    (dense): Linear(in_features=768, out_features=768, bias=True)
    (LayerNorm): LayerNorm((768,), eps=1e-05, elementwise_affine=True)
    (dropout): Dropout(p=0.1, inplace=False)
  )
)
32a
name='self'
child=RobertaSelfAttention(
  (query): Linear(in_features=768, out_features=768, bias=True)
  (key): Linear(in_features=768, out_features=768, bias=True)
  (value): Linear(in_features=768, out_features=768, bias=True)
  (dropout): Dropout(p=0.1, inplace=False)
)
32b
RobertaSelfAttention(
  (query): Linear(in_features=768, out_features=768, bias=True)
  (key): Linear(in_features=768, out_features=768, bias=True)
  (value): Linear(in_features=768, out_features=768, bias=True)
  (dropout): Dropout(p=0.1, inplace=False)
)
32a
name='query'
child=Linear(in_features=768, out_features=768, bias=True)
32b
Linear(in_features=768, out_features=768, bias=True)
32a
name='key'
child=Linear(in_features=768, out_features=768, bias=True)
32b
Linear(in_features=768, out_features=768, bias=True)
32a
name='value'
child=Linear(in_features=768, out_features=768, bias=True)
32b
Linear(in_features=768, out_features=768, bias=True)
32a
name='dropout'
child=Dropout(p=0.1, inplace=False)
32b
Dropout(p=0.1, inplace=False)
32a
name='output'
child=RobertaSelfOutput(
  (dense): Linear(in_features=768, out_features=768, bias=True)
  (LayerNorm): LayerNorm((768,), eps=1e-05, elementwise_affine=True)
  (dropout): Dropout(p=0.1, inplace=False)
)
32b
RobertaSelfOutput(
  (dense): Linear(in_features=768, out_features=768, bias=True)
  (LayerNorm): LayerNorm((768,), eps=1e-05, elementwise_affine=True)
  (dropout): Dropout(p=0.1, inplace=False)
)
32a
name='dense'
child=Linear(in_features=768, out_features=768, bias=True)
32b
Linear(in_features=768, out_features=768, bias=True)
32a
name='LayerNorm'
child=LayerNorm((768,), eps=1e-05, elementwise_affine=True)
32b
LayerNorm((768,), eps=1e-05, elementwise_affine=True)
32a
name='dropout'
child=Dropout(p=0.1, inplace=False)
32b
Dropout(p=0.1, inplace=False)
32a
name='intermediate'
child=RobertaIntermediate(
  (dense): Linear(in_features=768, out_features=3072, bias=True)
  (intermediate_act_fn): GELUActivation()
)
32b
RobertaIntermediate(
  (dense): Linear(in_features=768, out_features=3072, bias=True)
  (intermediate_act_fn): GELUActivation()
)
32a
name='dense'
child=Linear(in_features=768, out_features=3072, bias=True)
32b
Linear(in_features=768, out_features=3072, bias=True)
32a
name='intermediate_act_fn'
child=GELUActivation()
32b
GELUActivation()
32a
name='output'
child=RobertaOutput(
  (dense): Linear(in_features=3072, out_features=768, bias=True)
  (LayerNorm): LayerNorm((768,), eps=1e-05, elementwise_affine=True)
  (dropout): Dropout(p=0.1, inplace=False)
)
32b
RobertaOutput(
  (dense): Linear(in_features=3072, out_features=768, bias=True)
  (LayerNorm): LayerNorm((768,), eps=1e-05, elementwise_affine=True)
  (dropout): Dropout(p=0.1, inplace=False)
)
32a
name='dense'
child=Linear(in_features=3072, out_features=768, bias=True)
32b
Linear(in_features=3072, out_features=768, bias=True)
32a
name='LayerNorm'
child=LayerNorm((768,), eps=1e-05, elementwise_affine=True)
32b
LayerNorm((768,), eps=1e-05, elementwise_affine=True)
32a
name='dropout'
child=Dropout(p=0.1, inplace=False)
32b
Dropout(p=0.1, inplace=False)
32a
name='8'
child=RobertaLayer(
  (attention): RobertaAttention(
    (self): RobertaSelfAttention(
      (query): Linear(in_features=768, out_features=768, bias=True)
      (key): Linear(in_features=768, out_features=768, bias=True)
      (value): Linear(in_features=768, out_features=768, bias=True)
      (dropout): Dropout(p=0.1, inplace=False)
    )
    (output): RobertaSelfOutput(
      (dense): Linear(in_features=768, out_features=768, bias=True)
      (LayerNorm): LayerNorm((768,), eps=1e-05, elementwise_affine=True)
      (dropout): Dropout(p=0.1, inplace=False)
    )
  )
  (intermediate): RobertaIntermediate(
    (dense): Linear(in_features=768, out_features=3072, bias=True)
    (intermediate_act_fn): GELUActivation()
  )
  (output): RobertaOutput(
    (dense): Linear(in_features=3072, out_features=768, bias=True)
    (LayerNorm): LayerNorm((768,), eps=1e-05, elementwise_affine=True)
    (dropout): Dropout(p=0.1, inplace=False)
  )
)
32b
RobertaLayer(
  (attention): RobertaAttention(
    (self): RobertaSelfAttention(
      (query): Linear(in_features=768, out_features=768, bias=True)
      (key): Linear(in_features=768, out_features=768, bias=True)
      (value): Linear(in_features=768, out_features=768, bias=True)
      (dropout): Dropout(p=0.1, inplace=False)
    )
    (output): RobertaSelfOutput(
      (dense): Linear(in_features=768, out_features=768, bias=True)
      (LayerNorm): LayerNorm((768,), eps=1e-05, elementwise_affine=True)
      (dropout): Dropout(p=0.1, inplace=False)
    )
  )
  (intermediate): RobertaIntermediate(
    (dense): Linear(in_features=768, out_features=3072, bias=True)
    (intermediate_act_fn): GELUActivation()
  )
  (output): RobertaOutput(
    (dense): Linear(in_features=3072, out_features=768, bias=True)
    (LayerNorm): LayerNorm((768,), eps=1e-05, elementwise_affine=True)
    (dropout): Dropout(p=0.1, inplace=False)
  )
)
32a
name='attention'
child=RobertaAttention(
  (self): RobertaSelfAttention(
    (query): Linear(in_features=768, out_features=768, bias=True)
    (key): Linear(in_features=768, out_features=768, bias=True)
    (value): Linear(in_features=768, out_features=768, bias=True)
    (dropout): Dropout(p=0.1, inplace=False)
  )
  (output): RobertaSelfOutput(
    (dense): Linear(in_features=768, out_features=768, bias=True)
    (LayerNorm): LayerNorm((768,), eps=1e-05, elementwise_affine=True)
    (dropout): Dropout(p=0.1, inplace=False)
  )
)
32b
RobertaAttention(
  (self): RobertaSelfAttention(
    (query): Linear(in_features=768, out_features=768, bias=True)
    (key): Linear(in_features=768, out_features=768, bias=True)
    (value): Linear(in_features=768, out_features=768, bias=True)
    (dropout): Dropout(p=0.1, inplace=False)
  )
  (output): RobertaSelfOutput(
    (dense): Linear(in_features=768, out_features=768, bias=True)
    (LayerNorm): LayerNorm((768,), eps=1e-05, elementwise_affine=True)
    (dropout): Dropout(p=0.1, inplace=False)
  )
)
32a
name='self'
child=RobertaSelfAttention(
  (query): Linear(in_features=768, out_features=768, bias=True)
  (key): Linear(in_features=768, out_features=768, bias=True)
  (value): Linear(in_features=768, out_features=768, bias=True)
  (dropout): Dropout(p=0.1, inplace=False)
)
32b
RobertaSelfAttention(
  (query): Linear(in_features=768, out_features=768, bias=True)
  (key): Linear(in_features=768, out_features=768, bias=True)
  (value): Linear(in_features=768, out_features=768, bias=True)
  (dropout): Dropout(p=0.1, inplace=False)
)
32a
name='query'
child=Linear(in_features=768, out_features=768, bias=True)
32b
Linear(in_features=768, out_features=768, bias=True)
32a
name='key'
child=Linear(in_features=768, out_features=768, bias=True)
32b
Linear(in_features=768, out_features=768, bias=True)
32a
name='value'
child=Linear(in_features=768, out_features=768, bias=True)
32b
Linear(in_features=768, out_features=768, bias=True)
32a
name='dropout'
child=Dropout(p=0.1, inplace=False)
32b
Dropout(p=0.1, inplace=False)
32a
name='output'
child=RobertaSelfOutput(
  (dense): Linear(in_features=768, out_features=768, bias=True)
  (LayerNorm): LayerNorm((768,), eps=1e-05, elementwise_affine=True)
  (dropout): Dropout(p=0.1, inplace=False)
)
32b
RobertaSelfOutput(
  (dense): Linear(in_features=768, out_features=768, bias=True)
  (LayerNorm): LayerNorm((768,), eps=1e-05, elementwise_affine=True)
  (dropout): Dropout(p=0.1, inplace=False)
)
32a
name='dense'
child=Linear(in_features=768, out_features=768, bias=True)
32b
Linear(in_features=768, out_features=768, bias=True)
32a
name='LayerNorm'
child=LayerNorm((768,), eps=1e-05, elementwise_affine=True)
32b
LayerNorm((768,), eps=1e-05, elementwise_affine=True)
32a
name='dropout'
child=Dropout(p=0.1, inplace=False)
32b
Dropout(p=0.1, inplace=False)
32a
name='intermediate'
child=RobertaIntermediate(
  (dense): Linear(in_features=768, out_features=3072, bias=True)
  (intermediate_act_fn): GELUActivation()
)
32b
RobertaIntermediate(
  (dense): Linear(in_features=768, out_features=3072, bias=True)
  (intermediate_act_fn): GELUActivation()
)
32a
name='dense'
child=Linear(in_features=768, out_features=3072, bias=True)
32b
Linear(in_features=768, out_features=3072, bias=True)
32a
name='intermediate_act_fn'
child=GELUActivation()
32b
GELUActivation()
32a
name='output'
child=RobertaOutput(
  (dense): Linear(in_features=3072, out_features=768, bias=True)
  (LayerNorm): LayerNorm((768,), eps=1e-05, elementwise_affine=True)
  (dropout): Dropout(p=0.1, inplace=False)
)
32b
RobertaOutput(
  (dense): Linear(in_features=3072, out_features=768, bias=True)
  (LayerNorm): LayerNorm((768,), eps=1e-05, elementwise_affine=True)
  (dropout): Dropout(p=0.1, inplace=False)
)
32a
name='dense'
child=Linear(in_features=3072, out_features=768, bias=True)
32b
Linear(in_features=3072, out_features=768, bias=True)
32a
name='LayerNorm'
child=LayerNorm((768,), eps=1e-05, elementwise_affine=True)
32b
LayerNorm((768,), eps=1e-05, elementwise_affine=True)
32a
name='dropout'
child=Dropout(p=0.1, inplace=False)
32b
Dropout(p=0.1, inplace=False)
32a
name='9'
child=RobertaLayer(
  (attention): RobertaAttention(
    (self): RobertaSelfAttention(
      (query): Linear(in_features=768, out_features=768, bias=True)
      (key): Linear(in_features=768, out_features=768, bias=True)
      (value): Linear(in_features=768, out_features=768, bias=True)
      (dropout): Dropout(p=0.1, inplace=False)
    )
    (output): RobertaSelfOutput(
      (dense): Linear(in_features=768, out_features=768, bias=True)
      (LayerNorm): LayerNorm((768,), eps=1e-05, elementwise_affine=True)
      (dropout): Dropout(p=0.1, inplace=False)
    )
  )
  (intermediate): RobertaIntermediate(
    (dense): Linear(in_features=768, out_features=3072, bias=True)
    (intermediate_act_fn): GELUActivation()
  )
  (output): RobertaOutput(
    (dense): Linear(in_features=3072, out_features=768, bias=True)
    (LayerNorm): LayerNorm((768,), eps=1e-05, elementwise_affine=True)
    (dropout): Dropout(p=0.1, inplace=False)
  )
)
32b
RobertaLayer(
  (attention): RobertaAttention(
    (self): RobertaSelfAttention(
      (query): Linear(in_features=768, out_features=768, bias=True)
      (key): Linear(in_features=768, out_features=768, bias=True)
      (value): Linear(in_features=768, out_features=768, bias=True)
      (dropout): Dropout(p=0.1, inplace=False)
    )
    (output): RobertaSelfOutput(
      (dense): Linear(in_features=768, out_features=768, bias=True)
      (LayerNorm): LayerNorm((768,), eps=1e-05, elementwise_affine=True)
      (dropout): Dropout(p=0.1, inplace=False)
    )
  )
  (intermediate): RobertaIntermediate(
    (dense): Linear(in_features=768, out_features=3072, bias=True)
    (intermediate_act_fn): GELUActivation()
  )
  (output): RobertaOutput(
    (dense): Linear(in_features=3072, out_features=768, bias=True)
    (LayerNorm): LayerNorm((768,), eps=1e-05, elementwise_affine=True)
    (dropout): Dropout(p=0.1, inplace=False)
  )
)
32a
name='attention'
child=RobertaAttention(
  (self): RobertaSelfAttention(
    (query): Linear(in_features=768, out_features=768, bias=True)
    (key): Linear(in_features=768, out_features=768, bias=True)
    (value): Linear(in_features=768, out_features=768, bias=True)
    (dropout): Dropout(p=0.1, inplace=False)
  )
  (output): RobertaSelfOutput(
    (dense): Linear(in_features=768, out_features=768, bias=True)
    (LayerNorm): LayerNorm((768,), eps=1e-05, elementwise_affine=True)
    (dropout): Dropout(p=0.1, inplace=False)
  )
)
32b
RobertaAttention(
  (self): RobertaSelfAttention(
    (query): Linear(in_features=768, out_features=768, bias=True)
    (key): Linear(in_features=768, out_features=768, bias=True)
    (value): Linear(in_features=768, out_features=768, bias=True)
    (dropout): Dropout(p=0.1, inplace=False)
  )
  (output): RobertaSelfOutput(
    (dense): Linear(in_features=768, out_features=768, bias=True)
    (LayerNorm): LayerNorm((768,), eps=1e-05, elementwise_affine=True)
    (dropout): Dropout(p=0.1, inplace=False)
  )
)
32a
name='self'
child=RobertaSelfAttention(
  (query): Linear(in_features=768, out_features=768, bias=True)
  (key): Linear(in_features=768, out_features=768, bias=True)
  (value): Linear(in_features=768, out_features=768, bias=True)
  (dropout): Dropout(p=0.1, inplace=False)
)
32b
RobertaSelfAttention(
  (query): Linear(in_features=768, out_features=768, bias=True)
  (key): Linear(in_features=768, out_features=768, bias=True)
  (value): Linear(in_features=768, out_features=768, bias=True)
  (dropout): Dropout(p=0.1, inplace=False)
)
32a
name='query'
child=Linear(in_features=768, out_features=768, bias=True)
32b
Linear(in_features=768, out_features=768, bias=True)
32a
name='key'
child=Linear(in_features=768, out_features=768, bias=True)
32b
Linear(in_features=768, out_features=768, bias=True)
32a
name='value'
child=Linear(in_features=768, out_features=768, bias=True)
32b
Linear(in_features=768, out_features=768, bias=True)
32a
name='dropout'
child=Dropout(p=0.1, inplace=False)
32b
Dropout(p=0.1, inplace=False)
32a
name='output'
child=RobertaSelfOutput(
  (dense): Linear(in_features=768, out_features=768, bias=True)
  (LayerNorm): LayerNorm((768,), eps=1e-05, elementwise_affine=True)
  (dropout): Dropout(p=0.1, inplace=False)
)
32b
RobertaSelfOutput(
  (dense): Linear(in_features=768, out_features=768, bias=True)
  (LayerNorm): LayerNorm((768,), eps=1e-05, elementwise_affine=True)
  (dropout): Dropout(p=0.1, inplace=False)
)
32a
name='dense'
child=Linear(in_features=768, out_features=768, bias=True)
32b
Linear(in_features=768, out_features=768, bias=True)
32a
name='LayerNorm'
child=LayerNorm((768,), eps=1e-05, elementwise_affine=True)
32b
LayerNorm((768,), eps=1e-05, elementwise_affine=True)
32a
name='dropout'
child=Dropout(p=0.1, inplace=False)
32b
Dropout(p=0.1, inplace=False)
32a
name='intermediate'
child=RobertaIntermediate(
  (dense): Linear(in_features=768, out_features=3072, bias=True)
  (intermediate_act_fn): GELUActivation()
)
32b
RobertaIntermediate(
  (dense): Linear(in_features=768, out_features=3072, bias=True)
  (intermediate_act_fn): GELUActivation()
)
32a
name='dense'
child=Linear(in_features=768, out_features=3072, bias=True)
32b
Linear(in_features=768, out_features=3072, bias=True)
32a
name='intermediate_act_fn'
child=GELUActivation()
32b
GELUActivation()
32a
name='output'
child=RobertaOutput(
  (dense): Linear(in_features=3072, out_features=768, bias=True)
  (LayerNorm): LayerNorm((768,), eps=1e-05, elementwise_affine=True)
  (dropout): Dropout(p=0.1, inplace=False)
)
32b
RobertaOutput(
  (dense): Linear(in_features=3072, out_features=768, bias=True)
  (LayerNorm): LayerNorm((768,), eps=1e-05, elementwise_affine=True)
  (dropout): Dropout(p=0.1, inplace=False)
)
32a
name='dense'
child=Linear(in_features=3072, out_features=768, bias=True)
32b
Linear(in_features=3072, out_features=768, bias=True)
32a
name='LayerNorm'
child=LayerNorm((768,), eps=1e-05, elementwise_affine=True)
32b
LayerNorm((768,), eps=1e-05, elementwise_affine=True)
32a
name='dropout'
child=Dropout(p=0.1, inplace=False)
32b
Dropout(p=0.1, inplace=False)
32a
name='10'
child=RobertaLayer(
  (attention): RobertaAttention(
    (self): RobertaSelfAttention(
      (query): Linear(in_features=768, out_features=768, bias=True)
      (key): Linear(in_features=768, out_features=768, bias=True)
      (value): Linear(in_features=768, out_features=768, bias=True)
      (dropout): Dropout(p=0.1, inplace=False)
    )
    (output): RobertaSelfOutput(
      (dense): Linear(in_features=768, out_features=768, bias=True)
      (LayerNorm): LayerNorm((768,), eps=1e-05, elementwise_affine=True)
      (dropout): Dropout(p=0.1, inplace=False)
    )
  )
  (intermediate): RobertaIntermediate(
    (dense): Linear(in_features=768, out_features=3072, bias=True)
    (intermediate_act_fn): GELUActivation()
  )
  (output): RobertaOutput(
    (dense): Linear(in_features=3072, out_features=768, bias=True)
    (LayerNorm): LayerNorm((768,), eps=1e-05, elementwise_affine=True)
    (dropout): Dropout(p=0.1, inplace=False)
  )
)
32b
RobertaLayer(
  (attention): RobertaAttention(
    (self): RobertaSelfAttention(
      (query): Linear(in_features=768, out_features=768, bias=True)
      (key): Linear(in_features=768, out_features=768, bias=True)
      (value): Linear(in_features=768, out_features=768, bias=True)
      (dropout): Dropout(p=0.1, inplace=False)
    )
    (output): RobertaSelfOutput(
      (dense): Linear(in_features=768, out_features=768, bias=True)
      (LayerNorm): LayerNorm((768,), eps=1e-05, elementwise_affine=True)
      (dropout): Dropout(p=0.1, inplace=False)
    )
  )
  (intermediate): RobertaIntermediate(
    (dense): Linear(in_features=768, out_features=3072, bias=True)
    (intermediate_act_fn): GELUActivation()
  )
  (output): RobertaOutput(
    (dense): Linear(in_features=3072, out_features=768, bias=True)
    (LayerNorm): LayerNorm((768,), eps=1e-05, elementwise_affine=True)
    (dropout): Dropout(p=0.1, inplace=False)
  )
)
32a
name='attention'
child=RobertaAttention(
  (self): RobertaSelfAttention(
    (query): Linear(in_features=768, out_features=768, bias=True)
    (key): Linear(in_features=768, out_features=768, bias=True)
    (value): Linear(in_features=768, out_features=768, bias=True)
    (dropout): Dropout(p=0.1, inplace=False)
  )
  (output): RobertaSelfOutput(
    (dense): Linear(in_features=768, out_features=768, bias=True)
    (LayerNorm): LayerNorm((768,), eps=1e-05, elementwise_affine=True)
    (dropout): Dropout(p=0.1, inplace=False)
  )
)
32b
RobertaAttention(
  (self): RobertaSelfAttention(
    (query): Linear(in_features=768, out_features=768, bias=True)
    (key): Linear(in_features=768, out_features=768, bias=True)
    (value): Linear(in_features=768, out_features=768, bias=True)
    (dropout): Dropout(p=0.1, inplace=False)
  )
  (output): RobertaSelfOutput(
    (dense): Linear(in_features=768, out_features=768, bias=True)
    (LayerNorm): LayerNorm((768,), eps=1e-05, elementwise_affine=True)
    (dropout): Dropout(p=0.1, inplace=False)
  )
)
32a
name='self'
child=RobertaSelfAttention(
  (query): Linear(in_features=768, out_features=768, bias=True)
  (key): Linear(in_features=768, out_features=768, bias=True)
  (value): Linear(in_features=768, out_features=768, bias=True)
  (dropout): Dropout(p=0.1, inplace=False)
)
32b
RobertaSelfAttention(
  (query): Linear(in_features=768, out_features=768, bias=True)
  (key): Linear(in_features=768, out_features=768, bias=True)
  (value): Linear(in_features=768, out_features=768, bias=True)
  (dropout): Dropout(p=0.1, inplace=False)
)
32a
name='query'
child=Linear(in_features=768, out_features=768, bias=True)
32b
Linear(in_features=768, out_features=768, bias=True)
32a
name='key'
child=Linear(in_features=768, out_features=768, bias=True)
32b
Linear(in_features=768, out_features=768, bias=True)
32a
name='value'
child=Linear(in_features=768, out_features=768, bias=True)
32b
Linear(in_features=768, out_features=768, bias=True)
32a
name='dropout'
child=Dropout(p=0.1, inplace=False)
32b
Dropout(p=0.1, inplace=False)
32a
name='output'
child=RobertaSelfOutput(
  (dense): Linear(in_features=768, out_features=768, bias=True)
  (LayerNorm): LayerNorm((768,), eps=1e-05, elementwise_affine=True)
  (dropout): Dropout(p=0.1, inplace=False)
)
32b
RobertaSelfOutput(
  (dense): Linear(in_features=768, out_features=768, bias=True)
  (LayerNorm): LayerNorm((768,), eps=1e-05, elementwise_affine=True)
  (dropout): Dropout(p=0.1, inplace=False)
)
32a
name='dense'
child=Linear(in_features=768, out_features=768, bias=True)
32b
Linear(in_features=768, out_features=768, bias=True)
32a
name='LayerNorm'
child=LayerNorm((768,), eps=1e-05, elementwise_affine=True)
32b
LayerNorm((768,), eps=1e-05, elementwise_affine=True)
32a
name='dropout'
child=Dropout(p=0.1, inplace=False)
32b
Dropout(p=0.1, inplace=False)
32a
name='intermediate'
child=RobertaIntermediate(
  (dense): Linear(in_features=768, out_features=3072, bias=True)
  (intermediate_act_fn): GELUActivation()
)
32b
RobertaIntermediate(
  (dense): Linear(in_features=768, out_features=3072, bias=True)
  (intermediate_act_fn): GELUActivation()
)
32a
name='dense'
child=Linear(in_features=768, out_features=3072, bias=True)
32b
Linear(in_features=768, out_features=3072, bias=True)
32a
name='intermediate_act_fn'
child=GELUActivation()
32b
GELUActivation()
32a
name='output'
child=RobertaOutput(
  (dense): Linear(in_features=3072, out_features=768, bias=True)
  (LayerNorm): LayerNorm((768,), eps=1e-05, elementwise_affine=True)
  (dropout): Dropout(p=0.1, inplace=False)
)
32b
RobertaOutput(
  (dense): Linear(in_features=3072, out_features=768, bias=True)
  (LayerNorm): LayerNorm((768,), eps=1e-05, elementwise_affine=True)
  (dropout): Dropout(p=0.1, inplace=False)
)
32a
name='dense'
child=Linear(in_features=3072, out_features=768, bias=True)
32b
Linear(in_features=3072, out_features=768, bias=True)
32a
name='LayerNorm'
child=LayerNorm((768,), eps=1e-05, elementwise_affine=True)
32b
LayerNorm((768,), eps=1e-05, elementwise_affine=True)
32a
name='dropout'
child=Dropout(p=0.1, inplace=False)
32b
Dropout(p=0.1, inplace=False)
32a
name='11'
child=RobertaLayer(
  (attention): RobertaAttention(
    (self): RobertaSelfAttention(
      (query): Linear(in_features=768, out_features=768, bias=True)
      (key): Linear(in_features=768, out_features=768, bias=True)
      (value): Linear(in_features=768, out_features=768, bias=True)
      (dropout): Dropout(p=0.1, inplace=False)
    )
    (output): RobertaSelfOutput(
      (dense): Linear(in_features=768, out_features=768, bias=True)
      (LayerNorm): LayerNorm((768,), eps=1e-05, elementwise_affine=True)
      (dropout): Dropout(p=0.1, inplace=False)
    )
  )
  (intermediate): RobertaIntermediate(
    (dense): Linear(in_features=768, out_features=3072, bias=True)
    (intermediate_act_fn): GELUActivation()
  )
  (output): RobertaOutput(
    (dense): Linear(in_features=3072, out_features=768, bias=True)
    (LayerNorm): LayerNorm((768,), eps=1e-05, elementwise_affine=True)
    (dropout): Dropout(p=0.1, inplace=False)
  )
)
32b
RobertaLayer(
  (attention): RobertaAttention(
    (self): RobertaSelfAttention(
      (query): Linear(in_features=768, out_features=768, bias=True)
      (key): Linear(in_features=768, out_features=768, bias=True)
      (value): Linear(in_features=768, out_features=768, bias=True)
      (dropout): Dropout(p=0.1, inplace=False)
    )
    (output): RobertaSelfOutput(
      (dense): Linear(in_features=768, out_features=768, bias=True)
      (LayerNorm): LayerNorm((768,), eps=1e-05, elementwise_affine=True)
      (dropout): Dropout(p=0.1, inplace=False)
    )
  )
  (intermediate): RobertaIntermediate(
    (dense): Linear(in_features=768, out_features=3072, bias=True)
    (intermediate_act_fn): GELUActivation()
  )
  (output): RobertaOutput(
    (dense): Linear(in_features=3072, out_features=768, bias=True)
    (LayerNorm): LayerNorm((768,), eps=1e-05, elementwise_affine=True)
    (dropout): Dropout(p=0.1, inplace=False)
  )
)
32a
name='attention'
child=RobertaAttention(
  (self): RobertaSelfAttention(
    (query): Linear(in_features=768, out_features=768, bias=True)
    (key): Linear(in_features=768, out_features=768, bias=True)
    (value): Linear(in_features=768, out_features=768, bias=True)
    (dropout): Dropout(p=0.1, inplace=False)
  )
  (output): RobertaSelfOutput(
    (dense): Linear(in_features=768, out_features=768, bias=True)
    (LayerNorm): LayerNorm((768,), eps=1e-05, elementwise_affine=True)
    (dropout): Dropout(p=0.1, inplace=False)
  )
)
32b
RobertaAttention(
  (self): RobertaSelfAttention(
    (query): Linear(in_features=768, out_features=768, bias=True)
    (key): Linear(in_features=768, out_features=768, bias=True)
    (value): Linear(in_features=768, out_features=768, bias=True)
    (dropout): Dropout(p=0.1, inplace=False)
  )
  (output): RobertaSelfOutput(
    (dense): Linear(in_features=768, out_features=768, bias=True)
    (LayerNorm): LayerNorm((768,), eps=1e-05, elementwise_affine=True)
    (dropout): Dropout(p=0.1, inplace=False)
  )
)
32a
name='self'
child=RobertaSelfAttention(
  (query): Linear(in_features=768, out_features=768, bias=True)
  (key): Linear(in_features=768, out_features=768, bias=True)
  (value): Linear(in_features=768, out_features=768, bias=True)
  (dropout): Dropout(p=0.1, inplace=False)
)
32b
RobertaSelfAttention(
  (query): Linear(in_features=768, out_features=768, bias=True)
  (key): Linear(in_features=768, out_features=768, bias=True)
  (value): Linear(in_features=768, out_features=768, bias=True)
  (dropout): Dropout(p=0.1, inplace=False)
)
32a
name='query'
child=Linear(in_features=768, out_features=768, bias=True)
32b
Linear(in_features=768, out_features=768, bias=True)
32a
name='key'
child=Linear(in_features=768, out_features=768, bias=True)
32b
Linear(in_features=768, out_features=768, bias=True)
32a
name='value'
child=Linear(in_features=768, out_features=768, bias=True)
32b
Linear(in_features=768, out_features=768, bias=True)
32a
name='dropout'
child=Dropout(p=0.1, inplace=False)
32b
Dropout(p=0.1, inplace=False)
32a
name='output'
child=RobertaSelfOutput(
  (dense): Linear(in_features=768, out_features=768, bias=True)
  (LayerNorm): LayerNorm((768,), eps=1e-05, elementwise_affine=True)
  (dropout): Dropout(p=0.1, inplace=False)
)
32b
RobertaSelfOutput(
  (dense): Linear(in_features=768, out_features=768, bias=True)
  (LayerNorm): LayerNorm((768,), eps=1e-05, elementwise_affine=True)
  (dropout): Dropout(p=0.1, inplace=False)
)
32a
name='dense'
child=Linear(in_features=768, out_features=768, bias=True)
32b
Linear(in_features=768, out_features=768, bias=True)
32a
name='LayerNorm'
child=LayerNorm((768,), eps=1e-05, elementwise_affine=True)
32b
LayerNorm((768,), eps=1e-05, elementwise_affine=True)
32a
name='dropout'
child=Dropout(p=0.1, inplace=False)
32b
Dropout(p=0.1, inplace=False)
32a
name='intermediate'
child=RobertaIntermediate(
  (dense): Linear(in_features=768, out_features=3072, bias=True)
  (intermediate_act_fn): GELUActivation()
)
32b
RobertaIntermediate(
  (dense): Linear(in_features=768, out_features=3072, bias=True)
  (intermediate_act_fn): GELUActivation()
)
32a
name='dense'
child=Linear(in_features=768, out_features=3072, bias=True)
32b
Linear(in_features=768, out_features=3072, bias=True)
32a
name='intermediate_act_fn'
child=GELUActivation()
32b
GELUActivation()
32a
name='output'
child=RobertaOutput(
  (dense): Linear(in_features=3072, out_features=768, bias=True)
  (LayerNorm): LayerNorm((768,), eps=1e-05, elementwise_affine=True)
  (dropout): Dropout(p=0.1, inplace=False)
)
32b
RobertaOutput(
  (dense): Linear(in_features=3072, out_features=768, bias=True)
  (LayerNorm): LayerNorm((768,), eps=1e-05, elementwise_affine=True)
  (dropout): Dropout(p=0.1, inplace=False)
)
32a
name='dense'
child=Linear(in_features=3072, out_features=768, bias=True)
32b
Linear(in_features=3072, out_features=768, bias=True)
32a
name='LayerNorm'
child=LayerNorm((768,), eps=1e-05, elementwise_affine=True)
32b
LayerNorm((768,), eps=1e-05, elementwise_affine=True)
32a
name='dropout'
child=Dropout(p=0.1, inplace=False)
32b
Dropout(p=0.1, inplace=False)
32a
name='classifier'
child=RobertaClassificationHead(
  (dense): Linear(in_features=768, out_features=768, bias=True)
  (dropout): Dropout(p=0.1, inplace=False)
  (out_proj): Linear(in_features=768, out_features=3, bias=True)
)
32b
RobertaClassificationHead(
  (dense): Linear(in_features=768, out_features=768, bias=True)
  (dropout): Dropout(p=0.1, inplace=False)
  (out_proj): Linear(in_features=768, out_features=3, bias=True)
)
32a
name='dense'
child=Linear(in_features=768, out_features=768, bias=True)
32b
Linear(in_features=768, out_features=768, bias=True)
32a
name='dropout'
child=Dropout(p=0.1, inplace=False)
32b
Dropout(p=0.1, inplace=False)
32a
name='out_proj'
child=Linear(in_features=768, out_features=3, bias=True)
32b
Linear(in_features=768, out_features=3, bias=True)
32a
…
